{"class_name": "Model", "keras_version": "2.2.0", "config": {"layers": [{"class_name": "InputLayer", "config": {"dtype": "float32", "batch_input_shape": [null, 28, 28, 1], "name": "input_1", "sparse": false}, "inbound_nodes": [], "name": "input_1"}, {"class_name": "Conv2D", "config": {"kernel_constraint": null, "kernel_initializer": {"class_name": "RandomNormal", "config": {"seed": null, "stddev": 0.02, "mean": 0.0}}, "name": "conv2d_1", "bias_regularizer": null, "bias_constraint": null, "activation": "relu", "trainable": true, "data_format": "channels_last", "padding": "same", "strides": [2, 2], "dilation_rate": [1, 1], "kernel_regularizer": null, "filters": 28, "bias_initializer": {"class_name": "Zeros", "config": {}}, "use_bias": true, "activity_regularizer": null, "kernel_size": [5, 5]}, "inbound_nodes": [[["input_1", 0, 0, {}]]], "name": "conv2d_1"}, {"class_name": "BatchNormalization", "config": {"beta_constraint": null, "gamma_initializer": {"class_name": "RandomNormal", "config": {"seed": null, "stddev": 0.02, "mean": 1.0}}, "moving_mean_initializer": {"class_name": "Zeros", "config": {}}, "name": "batch_normalization_1", "epsilon": 0.001, "trainable": true, "moving_variance_initializer": {"class_name": "Ones", "config": {}}, "beta_initializer": {"class_name": "Zeros", "config": {}}, "scale": true, "axis": -1, "gamma_constraint": null, "gamma_regularizer": null, "beta_regularizer": null, "momentum": 0.99, "center": true}, "inbound_nodes": [[["conv2d_1", 0, 0, {}]]], "name": "batch_normalization_1"}, {"class_name": "Conv2D", "config": {"kernel_constraint": null, "kernel_initializer": {"class_name": "RandomNormal", "config": {"seed": null, "stddev": 0.02, "mean": 0.0}}, "name": "conv2d_2", "bias_regularizer": null, "bias_constraint": null, "activation": "relu", "trainable": true, "data_format": "channels_last", "padding": "same", "strides": [2, 2], "dilation_rate": [1, 1], "kernel_regularizer": null, "filters": 56, "bias_initializer": {"class_name": "Zeros", "config": {}}, "use_bias": true, "activity_regularizer": null, "kernel_size": [5, 5]}, "inbound_nodes": [[["batch_normalization_1", 0, 0, {}]]], "name": "conv2d_2"}, {"class_name": "BatchNormalization", "config": {"beta_constraint": null, "gamma_initializer": {"class_name": "RandomNormal", "config": {"seed": null, "stddev": 0.02, "mean": 1.0}}, "moving_mean_initializer": {"class_name": "Zeros", "config": {}}, "name": "batch_normalization_2", "epsilon": 0.001, "trainable": true, "moving_variance_initializer": {"class_name": "Ones", "config": {}}, "beta_initializer": {"class_name": "Zeros", "config": {}}, "scale": true, "axis": -1, "gamma_constraint": null, "gamma_regularizer": null, "beta_regularizer": null, "momentum": 0.99, "center": true}, "inbound_nodes": [[["conv2d_2", 0, 0, {}]]], "name": "batch_normalization_2"}, {"class_name": "Conv2D", "config": {"kernel_constraint": null, "kernel_initializer": {"class_name": "RandomNormal", "config": {"seed": null, "stddev": 0.02, "mean": 0.0}}, "name": "conv2d_3", "bias_regularizer": null, "bias_constraint": null, "activation": "relu", "trainable": true, "data_format": "channels_last", "padding": "same", "strides": [2, 2], "dilation_rate": [1, 1], "kernel_regularizer": null, "filters": 112, "bias_initializer": {"class_name": "Zeros", "config": {}}, "use_bias": true, "activity_regularizer": null, "kernel_size": [3, 3]}, "inbound_nodes": [[["batch_normalization_2", 0, 0, {}]]], "name": "conv2d_3"}, {"class_name": "BatchNormalization", "config": {"beta_constraint": null, "gamma_initializer": {"class_name": "RandomNormal", "config": {"seed": null, "stddev": 0.02, "mean": 1.0}}, "moving_mean_initializer": {"class_name": "Zeros", "config": {}}, "name": "batch_normalization_3", "epsilon": 0.001, "trainable": true, "moving_variance_initializer": {"class_name": "Ones", "config": {}}, "beta_initializer": {"class_name": "Zeros", "config": {}}, "scale": true, "axis": -1, "gamma_constraint": null, "gamma_regularizer": null, "beta_regularizer": null, "momentum": 0.99, "center": true}, "inbound_nodes": [[["conv2d_3", 0, 0, {}]]], "name": "batch_normalization_3"}, {"class_name": "Conv2D", "config": {"kernel_constraint": null, "kernel_initializer": {"class_name": "RandomNormal", "config": {"seed": null, "stddev": 0.02, "mean": 0.0}}, "name": "conv2d_4", "bias_regularizer": null, "bias_constraint": null, "activation": "relu", "trainable": true, "data_format": "channels_last", "padding": "same", "strides": [1, 1], "dilation_rate": [1, 1], "kernel_regularizer": null, "filters": 196, "bias_initializer": {"class_name": "Zeros", "config": {}}, "use_bias": true, "activity_regularizer": null, "kernel_size": [3, 3]}, "inbound_nodes": [[["batch_normalization_3", 0, 0, {}]]], "name": "conv2d_4"}, {"class_name": "BatchNormalization", "config": {"beta_constraint": null, "gamma_initializer": {"class_name": "RandomNormal", "config": {"seed": null, "stddev": 0.02, "mean": 1.0}}, "moving_mean_initializer": {"class_name": "Zeros", "config": {}}, "name": "batch_normalization_4", "epsilon": 0.001, "trainable": true, "moving_variance_initializer": {"class_name": "Ones", "config": {}}, "beta_initializer": {"class_name": "Zeros", "config": {}}, "scale": true, "axis": -1, "gamma_constraint": null, "gamma_regularizer": null, "beta_regularizer": null, "momentum": 0.99, "center": true}, "inbound_nodes": [[["conv2d_4", 0, 0, {}]]], "name": "batch_normalization_4"}, {"class_name": "Flatten", "config": {"trainable": true, "name": "flatten_1", "data_format": "channels_last"}, "inbound_nodes": [[["batch_normalization_4", 0, 0, {}]]], "name": "flatten_1"}, {"class_name": "Flatten", "config": {"trainable": true, "name": "flatten_2", "data_format": "channels_last"}, "inbound_nodes": [[["batch_normalization_4", 0, 0, {}]]], "name": "flatten_2"}, {"class_name": "Dense", "config": {"kernel_initializer": {"class_name": "RandomNormal", "config": {"seed": null, "stddev": 0.02, "mean": 0.0}}, "name": "dense_1", "kernel_constraint": null, "bias_regularizer": null, "bias_constraint": null, "activation": "linear", "trainable": true, "kernel_regularizer": null, "bias_initializer": {"class_name": "RandomNormal", "config": {"seed": null, "stddev": 0.02, "mean": 0.0}}, "units": 256, "use_bias": true, "activity_regularizer": null}, "inbound_nodes": [[["flatten_1", 0, 0, {}]]], "name": "dense_1"}, {"class_name": "Dense", "config": {"kernel_initializer": {"class_name": "RandomNormal", "config": {"seed": null, "stddev": 0.02, "mean": 0.0}}, "name": "dense_2", "kernel_constraint": null, "bias_regularizer": null, "bias_constraint": null, "activation": "softplus", "trainable": true, "kernel_regularizer": null, "bias_initializer": {"class_name": "Zeros", "config": {}}, "units": 256, "use_bias": true, "activity_regularizer": null}, "inbound_nodes": [[["flatten_2", 0, 0, {}]]], "name": "dense_2"}, {"class_name": "BatchNormalization", "config": {"beta_constraint": null, "gamma_initializer": {"class_name": "RandomNormal", "config": {"seed": null, "stddev": 0.02, "mean": 1.0}}, "moving_mean_initializer": {"class_name": "Zeros", "config": {}}, "name": "batch_normalization_5", "epsilon": 0.001, "trainable": true, "moving_variance_initializer": {"class_name": "Ones", "config": {}}, "beta_initializer": {"class_name": "Zeros", "config": {}}, "scale": true, "axis": -1, "gamma_constraint": null, "gamma_regularizer": null, "beta_regularizer": null, "momentum": 0.99, "center": true}, "inbound_nodes": [[["dense_1", 0, 0, {}]]], "name": "batch_normalization_5"}, {"class_name": "BatchNormalization", "config": {"beta_constraint": null, "gamma_initializer": {"class_name": "RandomNormal", "config": {"seed": null, "stddev": 0.02, "mean": 1.0}}, "moving_mean_initializer": {"class_name": "Zeros", "config": {}}, "name": "batch_normalization_6", "epsilon": 0.001, "trainable": true, "moving_variance_initializer": {"class_name": "Ones", "config": {}}, "beta_initializer": {"class_name": "Zeros", "config": {}}, "scale": true, "axis": -1, "gamma_constraint": null, "gamma_regularizer": null, "beta_regularizer": null, "momentum": 0.99, "center": true}, "inbound_nodes": [[["dense_2", 0, 0, {}]]], "name": "batch_normalization_6"}, {"class_name": "Add", "config": {"trainable": true, "name": "add_1"}, "inbound_nodes": [[["batch_normalization_5", 0, 0, {}], ["batch_normalization_6", 0, 0, {}]]], "name": "add_1"}, {"class_name": "Dense", "config": {"kernel_initializer": {"class_name": "RandomNormal", "config": {"seed": null, "stddev": 0.02, "mean": 0.0}}, "name": "dense_3", "kernel_constraint": null, "bias_regularizer": null, "bias_constraint": null, "activation": "relu", "trainable": true, "kernel_regularizer": null, "bias_initializer": {"class_name": "Zeros", "config": {}}, "units": 1792, "use_bias": true, "activity_regularizer": null}, "inbound_nodes": [[["add_1", 0, 0, {}]]], "name": "dense_3"}, {"class_name": "Reshape", "config": {"target_shape": [4, 4, 112], "trainable": true, "name": "reshape_1"}, "inbound_nodes": [[["dense_3", 0, 0, {}]]], "name": "reshape_1"}, {"class_name": "BatchNormalization", "config": {"beta_constraint": null, "gamma_initializer": {"class_name": "RandomNormal", "config": {"seed": null, "stddev": 0.02, "mean": 1.0}}, "moving_mean_initializer": {"class_name": "Zeros", "config": {}}, "name": "batch_normalization_7", "epsilon": 0.001, "trainable": true, "moving_variance_initializer": {"class_name": "Ones", "config": {}}, "beta_initializer": {"class_name": "Zeros", "config": {}}, "scale": true, "axis": -1, "gamma_constraint": null, "gamma_regularizer": null, "beta_regularizer": null, "momentum": 0.99, "center": true}, "inbound_nodes": [[["reshape_1", 0, 0, {}]]], "name": "batch_normalization_7"}, {"class_name": "Conv2DTranspose", "config": {"kernel_constraint": null, "kernel_initializer": {"class_name": "RandomNormal", "config": {"seed": null, "stddev": 0.02, "mean": 0.0}}, "name": "conv2d_transpose_1", "bias_regularizer": null, "bias_constraint": null, "activation": "relu", "trainable": true, "data_format": "channels_last", "padding": "valid", "strides": [1, 1], "kernel_regularizer": null, "filters": 112, "bias_initializer": {"class_name": "Zeros", "config": {}}, "use_bias": true, "activity_regularizer": null, "kernel_size": [4, 4]}, "inbound_nodes": [[["batch_normalization_7", 0, 0, {}]]], "name": "conv2d_transpose_1"}, {"class_name": "BatchNormalization", "config": {"beta_constraint": null, "gamma_initializer": {"class_name": "RandomNormal", "config": {"seed": null, "stddev": 0.02, "mean": 1.0}}, "moving_mean_initializer": {"class_name": "Zeros", "config": {}}, "name": "batch_normalization_8", "epsilon": 0.001, "trainable": true, "moving_variance_initializer": {"class_name": "Ones", "config": {}}, "beta_initializer": {"class_name": "Zeros", "config": {}}, "scale": true, "axis": -1, "gamma_constraint": null, "gamma_regularizer": null, "beta_regularizer": null, "momentum": 0.99, "center": true}, "inbound_nodes": [[["conv2d_transpose_1", 0, 0, {}]]], "name": "batch_normalization_8"}, {"class_name": "Conv2DTranspose", "config": {"kernel_constraint": null, "kernel_initializer": {"class_name": "RandomNormal", "config": {"seed": null, "stddev": 0.02, "mean": 0.0}}, "name": "conv2d_transpose_2", "bias_regularizer": null, "bias_constraint": null, "activation": "relu", "trainable": true, "data_format": "channels_last", "padding": "same", "strides": [2, 2], "kernel_regularizer": null, "filters": 56, "bias_initializer": {"class_name": "Zeros", "config": {}}, "use_bias": true, "activity_regularizer": null, "kernel_size": [3, 3]}, "inbound_nodes": [[["batch_normalization_8", 0, 0, {}]]], "name": "conv2d_transpose_2"}, {"class_name": "BatchNormalization", "config": {"beta_constraint": null, "gamma_initializer": {"class_name": "RandomNormal", "config": {"seed": null, "stddev": 0.02, "mean": 1.0}}, "moving_mean_initializer": {"class_name": "Zeros", "config": {}}, "name": "batch_normalization_9", "epsilon": 0.001, "trainable": true, "moving_variance_initializer": {"class_name": "Ones", "config": {}}, "beta_initializer": {"class_name": "Zeros", "config": {}}, "scale": true, "axis": -1, "gamma_constraint": null, "gamma_regularizer": null, "beta_regularizer": null, "momentum": 0.99, "center": true}, "inbound_nodes": [[["conv2d_transpose_2", 0, 0, {}]]], "name": "batch_normalization_9"}, {"class_name": "Conv2DTranspose", "config": {"kernel_constraint": null, "kernel_initializer": {"class_name": "RandomNormal", "config": {"seed": null, "stddev": 0.02, "mean": 0.0}}, "name": "conv2d_transpose_3", "bias_regularizer": null, "bias_constraint": null, "activation": "relu", "trainable": true, "data_format": "channels_last", "padding": "same", "strides": [2, 2], "kernel_regularizer": null, "filters": 14, "bias_initializer": {"class_name": "Zeros", "config": {}}, "use_bias": true, "activity_regularizer": null, "kernel_size": [5, 5]}, "inbound_nodes": [[["batch_normalization_9", 0, 0, {}]]], "name": "conv2d_transpose_3"}, {"class_name": "BatchNormalization", "config": {"beta_constraint": null, "gamma_initializer": {"class_name": "RandomNormal", "config": {"seed": null, "stddev": 0.02, "mean": 1.0}}, "moving_mean_initializer": {"class_name": "Zeros", "config": {}}, "name": "batch_normalization_10", "epsilon": 0.001, "trainable": true, "moving_variance_initializer": {"class_name": "Ones", "config": {}}, "beta_initializer": {"class_name": "Zeros", "config": {}}, "scale": true, "axis": -1, "gamma_constraint": null, "gamma_regularizer": null, "beta_regularizer": null, "momentum": 0.99, "center": true}, "inbound_nodes": [[["conv2d_transpose_3", 0, 0, {}]]], "name": "batch_normalization_10"}, {"class_name": "Conv2DTranspose", "config": {"kernel_constraint": null, "kernel_initializer": {"class_name": "RandomNormal", "config": {"seed": null, "stddev": 0.02, "mean": 0.0}}, "name": "conv2d_transpose_4", "bias_regularizer": null, "bias_constraint": null, "activation": "sigmoid", "trainable": true, "data_format": "channels_last", "padding": "same", "strides": [1, 1], "kernel_regularizer": null, "filters": 1, "bias_initializer": {"class_name": "Zeros", "config": {}}, "use_bias": true, "activity_regularizer": null, "kernel_size": [5, 5]}, "inbound_nodes": [[["batch_normalization_10", 0, 0, {}]]], "name": "conv2d_transpose_4"}], "input_layers": [["input_1", 0, 0]], "output_layers": [["conv2d_transpose_4", 0, 0]], "name": "model_1"}, "backend": "tensorflow"}